…
 - 24s - loss: 0.7549 - accuracy: 0.5117 - val_loss: 0.6112 - val_accuracy: 0.8439
Epoch 3/5
 - 26s - loss: 0.7197 - accuracy: 0.5319 - val_loss: 0.6259 - val_accuracy: 0.7386
Epoch 4/5
 - 26s - loss: 0.7358 - accuracy: 0.5063 - val_loss: 0.6466 - val_accuracy: 0.6474
Epoch 5/5
 - 23s - loss: 0.7300 - accuracy: 0.5142 - val_loss: 0.6549 - val_accuracy: 0.6193
TRAINING COMPLETE
Model: "sequential_1"
_________________________________________________________________
Layer (type)                 output Shape              Param #   
=================================================================
conv1d_1 (Conv1D)            (None, 3187, 8)           184       
_________________________________________________________________
max_pooling1d_1 (MaxPooling1 (None, 797, 8)            0         
_________________________________________________________________
batch_normalization_1 (Batch (None, 797, 8)            32        
_________________________________________________________________
conv1d_2 (Conv1D)            (None, 787, 16)           1424      
_________________________________________________________________
max_pooling1d_2 (MaxPooling1 (None, 197, 16)           0         
_________________________________________________________________
batch_normalization_2 (Batch (None, 197, 16)           64        
_________________________________________________________________
conv1d_3 (Conv1D)            (None, 187, 32)           5664      
_________________________________________________________________
max_pooling1d_3 (MaxPooling1 (None, 47, 32)            0         
_________________________________________________________________
batch_normalization_3 (Batch (None, 47, 32)            128       
_________________________________________________________________
conv1d_4 (Conv1D)            (None, 37, 64)            22592     
_________________________________________________________________
max_pooling1d_4 (MaxPooling1 (None, 9, 64)             0         
_________________________________________________________________
flatten_1 (Flatten)          (None, 576)               0         
_________________________________________________________________
dropout_1 (Dropout)          (None, 576)               0         
_________________________________________________________________
dense_1 (Dense)              (None, 64)                36928     
_________________________________________________________________
dropout_2 (Dropout)          (None, 64)                0         
_________________________________________________________________
dense_2 (Dense)              (None, 64)                4160      
_________________________________________________________________
dense_3 (Dense)              (None, 1)                 65        
=================================================================
Total params: 71,241
Trainable params: 71,129
Non-trainable params: 112
_________________________________________________________________
</code></pre></div></div>

<h2 id="evaluate-m1">Evaluate (M1)</h2>

<p>Let‚Äôs assess the model thus far before tuning parameters. We‚Äôll create a few helper functions for calculating metrics and analyzing results visually.</p>
…
